softmax_regression_best_model.ckpt (torch, 33116 bytes, 2 tensors)

linear.weight f4 [10, 784]
0.017389199 -0.008946796 -0.01938011 0.02679232 -0.056591503 -0.104585595 -0.13458702 -0.095777825
0.079109564 0.15070646 -0.12942271 0.30762285 -0.01336966 -0.48201126 -0.36852843 -0.37523976
0.35255587 0.17895292 0.11415564 0.08405072 0.10981936 -0.12903036 -0.122794434 -0.054256354
0.01399702 0.045137152 -0.019222837 0.03046948 -0.033012763 0.024310643 0.028735742 0.03851483
-0.05841432 -0.2691199 -0.39718792 -0.017693818 0.03557794 -0.19978604 -0.078043304 0.14203277
-0.11679859 0.054962236 0.17129493 0.26030058 0.11372178 -0.018531755 0.047963172 -0.04645209
0.28670746 -0.024007024 -0.17467964 -0.072089404 0.066308014 0.034456156 0.014947852 0.03488681
-0.011833711 -0.020126157 -0.0060297702 0.08390848 -0.06681081 -0.0736344 -0.13516358 0.17989893
0.17072506 -0.043579306 0.048089277 -0.08221373 0.09610802 0.24979009 0.16965902 0.23185019
-0.024942413 0.14247254 -0.060039874 -0.024742208 0.19548005 0.14226633 0.13428026 0.15395607
0.16852777 0.02889099 -0.02299756 0.016373063 -0.029691115 -0.03049661 0.019695625 -0.01900433
0.039663345 0.053140942 0.10082009 0.06632916 0.10180283 0.2159151 0.08097489 -0.11045328
0.088079 -0.011291853 -0.09598784 0.0010495286 0.05015458 -0.06069271 0.096411146 -0.010588914
-0.028050836 0.26279554 0.085039966 0.24863224 0.23106256 0.00026587571 -0.056249987 0.025591774
-0.026650103 -0.019769752 -0.0007886364 0.10405666 0.037448373 0.12993601 0.16166487 -0.15728515
0.07248481 0.26040766 0.0073273648 -0.18718165 0.056503832 0.036880836 -0.18341139 0.0754821
-0.13909307 -0.23453204 0.036310945 0.099430814 0.017323934 0.06577557 0.28784236 0.21222517
0.24036078 0.045905374 -0.11035518 -0.027642822 0.014217438 -0.04643345 -0.032668862 0.030830847
0.37348467 0.13917811 0.15380372 -0.2937118 -0.027843188 -0.010709891 -0.12840995 -0.13372369
-0.09115532 -0.0050662127 -0.10169026 -0.06189241 -0.19117771 0.11213922 0.05717379 0.090184584
-0.090150766 -0.14573163 0.15702896 0.14997835 0.10616407 0.07946397 -0.15641128 0.014637773
-0.008176334 0.0681093 0.1510247 0.08603257 0.22215949 0.20671737 0.17424574 -0.04286899
0.24075238 -0.07284072 0.084347494 0.06562186 -0.19329442 0.1663335 -0.074047886 0.034420736
0.026690565 -0.01858452 0.09011745 0.22900389 -0.118917085 -0.12869936 0.16898625 0.19378918
0.16590066 0.19506589 -0.013969141 0.009842552 0.029319897 0.16913013 0.1806471 0.15564936
0.2283806 0.16094333 0.19588345 0.086132765 0.23362474 -0.02101311 -0.01686409 0.0887207
0.028716385 0.041486323 -0.25986382 -0.07747218 0.007865418 -0.0023110774 -0.0465099 0.36067298
0.12633136 -0.085330635 0.14876401 0.030142292 0.17967744 0.10989229 0.02552308 0.017388973
0.05745602 0.1489403 0.25156203 0.21507189 0.39311585 0.24065831 0.35008088 0.3916044
0.31792137 0.16035192 0.08150571 -0.090458155 0.045247447 -0.036177535 -0.017357906 0.06837218
0.0048581907 0.078684725 0.113199174 0.31342813 0.050630007 0.02293586 0.16178459 0.016895153
0.1806904 -0.0085711945 -0.04208524 -0.032946896 0.009489319 0.07343677 0.24499965 0.30617738
00000000: cb73 8e3c 9595 12bc 09c3 9ebc 917b db3c
00000010: 7ecc 67bd f930 d6bd 2ed1 09be 2a27 c4bd
00000020: 3204 a23d cb52 1a3e 6387 04be be80 9d3e
00000030: 6b0c 5bbc 2eca f6be c2af bcbe 6d1f c0be
00000040: 3482 b43e 6f3f 373e 6fca e93d c922 ac3d
00000050: f9e8 e03d 8920 04be a67b fbbd e93b 5ebd
00000060: c253 653c bce1 383d 3679 9dbc 229b f93c
00000070: 6438 07bd 1d27 c73c 3867 eb3c bac1 1d3d
00000080: db43 6fbd 15ca 89be 375c cbbe a0f2 90bc
00000090: 2dba 113d b694 4cbe 2bd5 9fbd 0a71 113e
000000a0: 1934 efbd 1520 613d f067 2f3e 1e46 853e
000000b0: f7e6 e83d e8cf 97bc 0875 443d 8c44 3ebd
000000c0: 52cb 923e 61aa c4bc 38df 32be 9ca3 93bd
000000d0: 7fcc 873d e621 0d3d d6e7 743c 79e5 0e3d
000000e0: 2ee2 41bc 9cdf a4bc 6195 c5bb 36d8 ab3d
000000f0: 1bd4 88bd a2cd 96bd 5268 0abe 6d37 383e
00000100: 8dd2 2e3e 3780 32bd 43f9 443d ac5f a8bd
00000110: 48d4 c43d f9c8 7f3e 18bb 2d3e 236a 6d3e
00000120: 0854 ccbc 52e4 113e 5fec 75bd 2cb0 cabc
00000130: ec2b 483e 44ae 113e c480 093e a9a6 1d3e
00000140: 8b92 2c3e ccac ec3c 6165 bcbc cd20 863c
00000150: c83a f3bc 07d4 f9bc b858 a13c f8ae 9bbc
00000160: 0876 223d 51aa 593d c37a ce3d 95d7 873d
00000170: 017e d03d d918 5d3e 2ad6 a53d 5435 e2bd
00000180: c362 b43d 7701 39bc 4695 c4bd 5690 893a
00000190: e46e 4d3d eb98 78bd 3573 c53d 207d 2dbc
000001a0: deca e5bc 238d 863e 6f29 ae3d 7399 7e3e
000001b0: aa9b 6c3e 3c65 8b39 6366 66bd d7a5 d13c
000001c0: 5151 dabc 2df4 a1bc 7ebc 4eba a81b d53d
000001d0: 7763 193d f20d 053e 7a8b 253e 5c0f 21be
000001e0: eb72 943d 2754 853e 641a f03b 8cac 3fbe
000001f0: 9070 673d 5c10 173d 32d0 3bbe 5c96 9a3d
00000200: 6a6e 0ebe 2b29 70be c9ba 143d 62a2 cb3d
00000210: ecea 8d3c 58b5 863d 1360 933e 8e51 593e
00000220: 2321 763e 4607 3c3d e601 e2bd 3373 e2bc
00000230: 42f0 683c 0031 3ebd c9cf 05bd f990 fc3c
00000240: 6239 bf3e b584 0e3e b97e 1d3e 6561 96be
00000250: 6617 e4bc 8a78 2fbc e67d 03be ddee 08be
00000260: a4af babd 7902 a6bb fc42 d0bd e582 7dbd
00000270: 17c4 43be 3fa9 e53d 102f 6a3d b2b2 b83d
00000280: f7a0 b8bd ac3a 15be 33cc 203e ed93 193e
00000290: 8c6c d93d 02be a23d 472a 20be 45d3 6f3c
000002a0: 08f6 05bc e47c 8b3d 38a6 1a3e d831 b03d
000002b0: c77d 633e b8ad 533e 7a6d 323e 6597 2fbd
000002c0: cb87 763e 842d 95bd 61be ac3d c164 863d
000002d0: f9ee 45be 5453 2a3e 6ba6 97bd c2fc 0c3d
000002e0: 2ca6 da3c 903e 98bc 7f8f b83d ff7f 6a3e
000002f0: cd8a f3bd c4c9 03be bb0a 2d3e ac70 463e
00000300: dde1 293e 5abf 473e d3de 64bc a842 213c
00000310: 4830 f03c 7330 2d3e 8efb 383e 8c62 1f3e
00000320: 9bdc 693e 54ce 243e ac95 483e 6066 b03d
00000330: 533b 6f3e b023 acbc 8f26 8abc 33b3 b53d
00000340: a03e eb3c 90ed 293d df0c 85be bca9 9ebd
00000350: f4dd 003c 7275 17bb 2a81 3ebd 21aa b83e
00000360: 025d 013e d4c1 aebd 9855 183e f8ec f63c
00000370: 5dfd 373e 350f e13d c715 d13c 5273 8e3c
00000380: 0157 6b3d ce83 183e bdcc 803e ce3b 5c3e
00000390: 7b46 c93e 226f 763e cd3d b33e 5f80 c83e
000003a0: 97c6 a23e 4b33 243e 77ec a63d 2042 b9bd
000003b0: 6355 393d e52e 14bd 2b32 8ebc b706 8c3d
000003c0: 7531 9f3b 7525 a13d f8d4 e73d a779 a03e
000003d0: 6961 4f3d fce3 bb3c dcaa 253e b467 8a3c
000003e0: e706 393e 326e 0cbc 9361 2cbd 53f3 06bd
000003f0: 1779 1b3c 0466 963d 30e1 7a3e 48c3 9c3e

linear.bias f4 [10]
0.7425381 -1.0949773 -0.12604052 0.69865584 -1.869533 3.2862017 0.59603775 0.35803947
-0.5438379 -1.9434035
00000000: fa16 3e3f 3728 8cbf c410 01be 1cdb 323f
00000010: db4c efbf 2151 5240 ee95 183f f350 b73e
00000020: f638 0bbf 72c1 f8bf
